name: "WordEmbedVecPredict"
layer {
  name: "data"
  type: "HDF5Data"
  top: "data"
  top: "label"	
  include {
    phase: TRAIN
  }
  hdf5_data_param {
    source: "/home/abba/caffe-recurrent/toys/WordEmbed/VecPredict/train_list.txt"
    batch_size: 128
  }
}
layer {
  name: "data"
  type: "HDF5Data"
  top: "data"
  top: "label"	
  include {
    phase: TEST
  }
  hdf5_data_param {
    source: "/home/abba/caffe-recurrent/toys/WordEmbed/VecPredict/test_list.txt"
    batch_size: 1
  }
}
#layer {
#  name: "squashLabel"
#  type: "Sigmoid"
#  bottom: "label"
#  top: "labels"
#}
layer {
  name: "ip1"
  type: "InnerProduct"
  bottom: "data"
  top: "ip1"
  param {
    lr_mult: 1
  }
  param {
    lr_mult: 2
  }
  inner_product_param {
    num_output: 10
    weight_filler {
      type: "xavier"
    }
    bias_filler {
      type: "constant"
    }
  }
}
layer {
  name: "squash1"
  type: "ReLU"
  bottom: "ip1"
  top: "ip1s"
}
layer {
  name: "drop1"
  type: "Dropout"
  bottom: "ip1s"
  top: "ip1s"
  dropout_param {
    dropout_ratio: 0.4
  }
  include {
    phase: TRAIN
  }
}
layer {
  name: "ip1b"
  type: "InnerProduct"
  bottom: "ip1s"
  top: "ip1b"
  param {
    lr_mult: 1
  }
  param {
    lr_mult: 2
  }
  inner_product_param {
    num_output: 3
    weight_filler {
      type: "xavier"
    }
    bias_filler {
      type: "constant"
    }
  }
}
layer {
  name: "squash2"
  type: "ReLU"
  bottom: "ip1b"
  top: "ip1bs"
}
layer {
  name: "drop2"
  type: "Dropout"
  bottom: "ip1bs"
  top: "ip1bs"
  dropout_param {
    dropout_ratio: 0.4
  }
  include {
    phase: TRAIN
  }
}
layer {
  name: "ip2"
  type: "InnerProduct"
  bottom: "ip1bs"
  top: "ip2"
  param {
    lr_mult: 1
  }
  param {
    lr_mult: 2
  }
  inner_product_param {
    num_output: 100
    weight_filler {
      type: "xavier"
    }
    bias_filler {
      type: "constant"
    }
  }
}
layer {
  name: "SquashOutput"
  type: "Sigmoid"
  bottom: "ip2"
  top: "ip2s"
}
layer {
  name: "loss"
  type: "SigmoidCrossEntropyLoss"
  bottom: "ip2"
  bottom: "label"
  top: "cross_entropy_loss"
  loss_weight: 1
}
layer {
  name: "loss"
  type: "EuclideanLoss"
  bottom: "ip2s"
  bottom: "label"
  top: "el_error"
  loss_weight: 0
}

